trained_network1.onnx (onnx, 34757 bytes, 8 tensors)

hidden1.bias f4 [64]
0	0xbdef3ceb	-0.11681541
1	0xbe4c1f3e	-0.19933793
2	0xbd4fc44d	-0.050724316
3	0xbe34e085	-0.17663772
4	0xbdd6a1e7	-0.10480099
5	0xbdadc15e	-0.084841475
6	0xbe1b41a9	-0.15161766
7	0xbe809e41	-0.25120738
8	0xbde8639a	-0.113471225
9	0xbda4b433	-0.08042183
10	0xbe48cc0f	-0.19609092
11	0xbe22654d	-0.15858956
12	0x3d42dcba	0.047573783
13	0xbea114d9	-0.31461218
14	0x3de6c86c	0.11268696
15	0xbd3e258a	-0.04642252
16	0xbe985b36	-0.29757088
17	0xbb643fb2	-0.0034828004
18	0xbe795fe9	-0.24352993
19	0xbe6e9c38	-0.2330178
20	0xbdd84623	-0.105602525
21	0x3d745f28	0.05966106
22	0xbe99fb9e	-0.3007478
23	0xbe39a146	-0.18127927
24	0xbe06e21b	-0.1317219
25	0xbe731a2b	-0.23740451
26	0x3de8eb20	0.113729715
27	0xbe5f1cc1	-0.21788312
28	0xbe3c1115	-0.18365891
29	0xbdf1547d	-0.11783693
30	0xbe0bf112	-0.1366618
31	0xbe1ce011	-0.1531985
32	0xbe7cf9a5	-0.24704607
33	0xbda76f84	-0.08175567
34	0x3d679bc1	0.056545023
35	0xbe2e1c99	-0.17003097
36	0xbe372ebb	-0.1788892
37	0xbe64c8a8	-0.2234217
38	0xbde4eea3	-0.11178329
39	0x3d36e010	0.044647276
40	0xbe7c3ed7	-0.24633346
41	0xbdf3c90d	-0.11903582
42	0xbe4c27e2	-0.19937089
43	0xbe488649	-0.19582476
44	0xbe02b443	-0.12764077
45	0xbd15e0fe	-0.036591522
46	0x3d84861d	0.064708926
47	0xbdd05adb	-0.10173579
48	0xbdf45d83	-0.119318984
49	0xbddd5477	-0.10807126
50	0xbdc2dc7d	-0.09514711
51	0xbe1c9d37	-0.15294348
52	0xbe81148e	-0.25210994
53	0xbceee2dd	-0.029160911
54	0xbdf4b56c	-0.11948666
55	0xbdf3be6d	-0.11901555
56	0xbdbe9cda	-0.09307261
57	0xbd97427f	-0.0738573
58	0xbe4b2fe6	-0.1984249
59	0xbe8ffe64	-0.28123772
60	0xbe5bcca5	-0.21464784
61	0xbe88016a	-0.2656358
62	0xbe37335c	-0.17890686
63	0x3a91c855	0.0011122326

hidden2.bias f4 [32]
0	0xbec788f7	-0.38971683
1	0xbe852e8a	-0.2601207
2	0xbe2ece5a	-0.17070904
3	0xbeb89b50	-0.36055994
4	0xbdaee0c4	-0.085389644
5	0xbf01c2a0	-0.506876
6	0xbe23e18a	-0.16004005
7	0xbd27242a	-0.040805973
8	0xbcd3abcb	-0.025838753
9	0xbe91a977	-0.28449604
10	0xbdba9476	-0.09110348
11	0xbe937f64	-0.2880813
12	0xbe072ba8	-0.13200247
13	0x3e8d5f21	0.2761164
14	0xbecba003	-0.39770517
15	0xbe8e03dd	-0.27737322
16	0xbe8ed0db	-0.2789372
17	0xbe9c3407	-0.30508444
18	0xbe3e5da8	-0.18590415
19	0x3f7f5f9b	0.9975526
20	0xbe94787a	-0.28998166
21	0xbae8fb44	-0.0017775078
22	0x3f6bfaa6	0.92179334
23	0xbe84cc80	-0.2593727
24	0xbd3759d9	-0.04476342
25	0xbea5a16e	-0.32349724
26	0xbe8a2298	-0.26979518
27	0xbd43350d	-0.047658015
28	0xbe83dc0a	-0.25753814
29	0xbeb0ddb9	-0.3454416
30	0xbd1540aa	-0.03643862
31	0x3ee4ef53	0.4471384

hidden3.bias f4 [32]
0	0x3e2b7b31	0.16746213
1	0x3c364838	0.011125617
2	0xbebb28f4	-0.36554682
3	0xbe340725	-0.1758085
4	0x3ddf1517	0.108926944
5	0x3f37e0b1	0.71827227
6	0xbe10546f	-0.14094709
7	0x3e175744	0.14779383
8	0x3e4cfd75	0.20018561
9	0x3ddab958	0.10679883
10	0xbd2b0ec6	-0.041762136
11	0x3de391eb	0.11111816
12	0x3db74ec8	0.08950573
13	0x3d9a30bf	0.07528829
14	0x3d011bfb	0.031520825
15	0x3e71bfa0	0.23608255
16	0xbe45a7af	-0.19302247
17	0xbe875d68	-0.2643845
18	0x3e937bb5	0.28805318
19	0x3db045a8	0.08607036
20	0x3f457a3a	0.7713963
21	0x3e30eefe	0.17278668
22	0xbe378a10	-0.1792376
23	0x3e5a2ed2	0.21306923
24	0xbd5976e0	-0.053091884
25	0x3f18e346	0.5972179
26	0x3d1285f2	0.03577227
27	0x3d899ca9	0.06719334
28	0x3d2fd986	0.042932056
29	0x3f89e02e	1.0771539
30	0xbe05acd3	-0.13054208
31	0xbf11c6aa	-0.5694376

output.bias f4 [2]
0	0x3f6dae1b	0.9284379
1	0xbf62fdba	-0.88668406

onnx::MatMul_25 f4 [80, 64]
0	0xbe48b298	-0.19599378
1	0xbec7b86d	-0.39007893
2	0x3deb8107	0.114992194
3	0x3ddba4d5	0.107247986
4	0xbe999524	-0.29996598
5	0xbe550cec	-0.2080571
6	0xbebae6a1	-0.3650408
7	0x3b8f08ec	0.0043650772
8	0xbea9fb3f	-0.33199498
9	0x3e8c186d	0.27362385
10	0x3da5a64e	0.08088361
11	0xbd6caeeb	-0.057784002
12	0xbeb7624f	-0.3581719
13	0xbeadb4d5	-0.33927026
14	0x3df05f01	0.117368706
15	0xbe6e262b	-0.23256747
16	0xbe38bdfc	-0.18041223
17	0xbf33a6d6	-0.70176446
18	0xbcbdce99	-0.023169803
19	0x3dc4cd1e	0.096094355
20	0xbe875b92	-0.2643705
21	0xbe09e414	-0.13465911
22	0xbe6ef5b7	-0.2333592
23	0xbb61b216	-0.0034438423
24	0xbcfecebe	-0.031104442
25	0xbed78967	-0.42097017
26	0x3e9e207d	0.30884162
27	0xbe39a962	-0.1813102
28	0x3e8f2bed	0.279632
29	0x3e72ddad	0.23717375
30	0xbe36ce35	-0.17852099
31	0xbecd60a4	-0.40112793
32	0xbdffd243	-0.12491276
33	0xbe3bcae6	-0.18339118
34	0xbdb488d5	-0.08815161
35	0xbe57d166	-0.21075973
36	0xbd88c2ac	-0.06677756
37	0x3d8d8d49	0.06911714
38	0xbe9b7d5b	-0.30369076
39	0xbe77a6d6	-0.24184737
40	0xbd971709	-0.073774405
41	0xbe96517f	-0.29359052
42	0xbe516e2a	-0.2045218
43	0x3e5a66f3	0.21328335
44	0xbe9eaa76	-0.30989426
45	0x3e03a105	0.12854393
46	0xbdd98788	-0.10621554
47	0x3ec65d7b	0.38743195
48	0xbe4c1be9	-0.19932522
49	0x3e44fe32	0.19237593
50	0xbe1e8a94	-0.15482551
51	0xbde0ea2c	-0.10982165
52	0xbe2bf500	-0.16792679
53	0xbed7177f	-0.42010114
54	0xbeed9578	-0.46403098
55	0xbf0fe7b9	-0.56212956
56	0xbdb110f1	-0.086458094
57	0x3e5e21d5	0.21692593
58	0x3dfa952b	0.12235483
59	0xbee3f6db	-0.44524273
60	0x3d21793e	0.039422266
61	0xbd21ed62	-0.039533027
62	0xbbae7de1	-0.0053250645
63	0x3d5298a1	0.05141509
64	0xbd0e4ca7	-0.03474107
65	0x3cbb5441	0.022867324
66	0xbedbc804	-0.42926037
67	0xbe6e1417	-0.23249851
68	0xbc98e65b	-0.01866453
69	0xbf1d9e14	-0.61569333
70	0xbe8e5c1c	-0.2780465
71	0xbf04e210	-0.51907444
72	0xbdae8959	-0.08522291
73	0xbefb06a7	-0.49028513
74	0x3dcad98b	0.09904774
75	0x3c81715d	0.015801126
76	0x3cda773c	0.026668184
77	0x3ecb9ae7	0.3976662
78	0xbec441dd	-0.383315
79	0xbcdeb333	-0.027185058
80	0xbf398a39	-0.72476536
81	0x3d2ce132	0.04220695
82	0xbe90ec46	-0.28305262
83	0xbe26a404	-0.16273504
84	0x3e62a24c	0.22132224
85	0xbdeb79cb	-0.114978395
86	0x3e861041	0.26184276
87	0xbcb028c9	-0.021503823
88	0xbe4ec71a	-0.20193139
89	0x3e7def4f	0.2479832
90	0x3eb8ddc7	0.36106703
91	0xbdcec27e	-0.1009569
92	0xbe5aa895	-0.21353371
93	0x3d38ca5e	0.045114867
94	0x3e1be88d	0.1522543
95	0x3d9c9c24	0.07646969
96	0xbe16cc11	-0.14726283
97	0x3cbbefeb	0.02294155
98	0x3c225d22	0.0099099
99	0xbe3d5c90	-0.18492341
100	0xbf2b7bb2	-0.6698562
101	0xbf10f270	-0.5661993
102	0x3f0c37b6	0.5477251
103	0xbe22f3a3	-0.15913253
104	0xbf1faf38	-0.6237674
105	0x3e6fdbef	0.23423742
106	0xbe6db9a9	-0.23215355
107	0xbf10fdce	-0.56637275
108	0xbe811bd8	-0.25216556
109	0x3e90aa2d	0.28254834
110	0xbe3e2718	-0.185696
111	0xbdc283e5	-0.09497813
112	0xbe94c4b2	-0.29056317
113	0x3e087617	0.13326298
114	0xbdab787c	-0.0837259
115	0xbe31f663	-0.17379145
116	0xbe8ee84a	-0.27911597
117	0xbda48400	-0.080329895
118	0xbecb7dab	-0.39744315
119	0xbf06e5cd	-0.526944
120	0x3e88f583	0.2674981
121	0xbee49bc0	-0.44650078
122	0x3dbb0a45	0.09132818
123	0xbe979b2a	-0.29610568
124	0xbe2500ae	-0.1611354
125	0x3e595ac1	0.21226026
126	0xbde64e6e	-0.11245428
127	0xbc5c2b5f	-0.013438075
128	0x3e172177	0.1475886
129	0x3ec90fee	0.39269966
130	0xbdc77763	-0.09739568
131	0xbe2f762e	-0.17134926
132	0xbea6748f	-0.32510802
133	0xbeae4414	-0.34036314
134	0x3e598b2c	0.21244496
135	0xbeea8466	-0.45804137
136	0x3cc38c49	0.023870604
137	0xbdf1f844	-0.11814931
138	0xbe9f865e	-0.31157202
139	0xbe000474	-0.12501699
140	0xbe83e4fe	-0.25760645
141	0xbedd0e56	-0.43175
142	0xbb98048b	-0.0046392134
143	0x3e62c5eb	0.22145812
144	0x3eb27d01	0.34860995
145	0x3eb5a284	0.35475552
146	0x3e1b30f2	0.1515539
147	0xbe433e30	-0.19066691
148	0x3db6a338	0.0891785
149	0xbd6c9651	-0.05776054
150	0x3c3b3ef6	0.011428585
151	0x3d946126	0.07245092
152	0x3e1123a1	0.14173748
153	0xbde46d6d	-0.11153684
154	0x3f02aec9	0.5104795
155	0xbe405d3d	-0.18785568
156	0xbccba834	-0.024860479
157	0x3d4546fc	0.0481634
158	0xbb756f7e	-0.0037450488
159	0xbe8076b2	-0.25090557
160	0x3d0a2139	0.03372309
161	0x3e4f6392	0.20252827
162	0xbd832e2c	-0.06405291
163	0xbe6c6382	-0.23084834
164	0x3e8043e7	0.25051805
165	0xbeaa53c0	-0.3326702
166	0xbd696952	-0.056985207
167	0x3db62907	0.08894544
168	0xbe168514	-0.14699203
169	0x3e9639a4	0.2934085
170	0xbe8c49c3	-0.27400026
171	0xbe5360c8	-0.20642388
172	0xbeb26ba5	-0.3484775
173	0xbeba5b89	-0.3639796
174	0x3dd4bf1b	0.10388013
175	0x3e3692c1	0.1782942
176	0x3e0dcf84	0.13848692
177	0xbd45e802	-0.048316963
178	0xbeb4107c	-0.35168827
179	0x3e07fb06	0.13279352
180	0xbcb37d1c	-0.021910243
181	0x3d364d54	0.04450734
182	0x3c7f58c8	0.015585132
183	0xbe06c9c5	-0.13162906
184	0xbc937a61	-0.01800269
185	0xbd076ffc	-0.03306578
186	0xbdc462a4	-0.09589127
187	0xbe932f99	-0.28747252
188	0xbe52c377	-0.20582376
189	0xbdfb46be	-0.122693524
190	0xbe96f85c	-0.29486358
191	0xbc89ac69	-0.016805844
192	0x3dd20e47	0.102566294
193	0xbea0f200	-0.3143463
194	0x3e193201	0.14960481
195	0xbe59494c	-0.21219367
196	0x3e009b0c	0.12559146
197	0x3e069b81	0.13145258
198	0xbcab93b5	-0.020944456
199	0x3bb6b3a1	0.0055756127
200	0xbe8817f4	-0.26580775
201	0x3ce39549	0.027781146
202	0x3d9a1cdc	0.07525036
203	0x3e80d539	0.25162676
204	0xbe5cc671	-0.21560074
205	0xbe03feef	-0.12890218
206	0x3e70f2e8	0.23530161
207	0x3e547aef	0.2075002
208	0xbe45cb8a	-0.19315925
209	0x3d4dca0a	0.050241508
210	0xbe2bb6d4	-0.16768962
211	0x3de4493b	0.1114678
212	0x3c9892ae	0.01862463
213	0xbdc7ccc1	-0.097558506
214	0xbe8c833e	-0.2744388
215	0xbdf4ee10	-0.11959469
216	0xbeb649a9	-0.35603073
217	0x3e003923	0.12521796
218	0x3ed18a5c	0.40925872
219	0xbd41b512	-0.047291823
220	0xbe52d39e	-0.20588538
221	0xbe30f935	-0.17282565
222	0xbd124da5	-0.03571858
223	0xbabe0a5c	-0.0014498937
224	0xbe07e2a5	-0.13270052
225	0xbed17c17	-0.40914986
226	0xbdf8ba1f	-0.12144875
227	0x3d595ad7	0.053065147
228	0x3dc86bb5	0.097861685
229	0x3d53ee9f	0.05174124
230	0x3e5953b3	0.21223335
231	0x3e326ea4	0.17425019
232	0xbdbe525e	-0.09293054
233	0x3d8efa78	0.06981367
234	0x3eb976f1	0.36223558
235	0xbf233db5	-0.6376603
236	0x3deeea32	0.11665763
237	0xbe7b866e	-0.24563
238	0xbe4a10a4	-0.1973291
239	0xbed074a4	-0.4071399
240	0xbe419f6c	-0.18908471
241	0xbe1af8fc	-0.15134043
242	0xbdb340b2	-0.08752574
243	0xbed1e117	-0.40992042
244	0xbd14fa95	-0.036371786
245	0xbe0b54be	-0.13606545
246	0xbf06ead0	-0.52702045
247	0x3df55ec2	0.11980964
248	0xbefe7498	-0.4969833
249	0xbf0b8ef4	-0.54515004
250	0xbe888008	-0.2666018
251	0xbe8c1eef	-0.2736735
252	0x3e802d20	0.25034428
253	0x3e15076c	0.14553612
254	0xbe832ac6	-0.2561857
255	0xbd1cbed3	-0.03826792

onnx::MatMul_26 f4 [64, 32]
0	0x3db9f318	0.090795696
1	0xbca25c0c	-0.019819282
2	0xb9d1ef30	-0.00040041795
3	0xbe2eac84	-0.17057997
4	0x3e24924e	0.16071436
5	0x3d0ad5f9	0.033895466
6	0x3cbe685d	0.023243124
7	0x3f24f364	0.64433885
8	0x3f0e0eca	0.55491316
9	0x3e7aca29	0.2449118
10	0x3edd7d8e	0.43259853
11	0xbe661728	-0.22469771
12	0xbdea943b	-0.11454054
13	0x3e072875	0.13199027
14	0xbe3634c2	-0.17793563
15	0x3e2078d5	0.15671094
16	0xbd3ecc95	-0.046581823
17	0xbd6cdaef	-0.05782598
18	0xbd002368	-0.031283766
19	0xbeca56cb	-0.39519343
20	0xbd944d7f	-0.07241344
21	0x3e8dcc51	0.27694944
22	0xbec69772	-0.3878742
23	0x3dcc4c8f	0.0997554
24	0x3eecc335	0.4624268
25	0x3dd42182	0.103579536
26	0xbdbb7329	-0.091528244
27	0xbe8afe2c	-0.27147043
28	0xbdf6b80c	-0.12046823
29	0x3d94a9c7	0.07258945
30	0x3edd6063	0.432376
31	0x3f7ab971	0.9793921
32	0x3e99c851	0.30035642
33	0x3c198d7d	0.009372112
34	0xbd305855	-0.04305299
35	0x3f6689c4	0.90053964
36	0xbe106d78	-0.14104259
37	0x3eeb6915	0.4597861
38	0x3cc73aa8	0.024319962
39	0xbf11bc4b	-0.5692794
40	0xbee63a1e	-0.44966215
41	0xbd9c06bd	-0.07618473
42	0xbee384d6	-0.44437283
43	0x3f3f6089	0.74756676
44	0xbe378599	-0.17922057
45	0xbe33565c	-0.17513412
46	0x3f227837	0.63464683
47	0x3e27b85d	0.16378923
48	0xbe9a3e75	-0.30125776
49	0xbe5f8710	-0.21828866
50	0x3ec65519	0.387368
51	0xbeb42a82	-0.3518868
52	0x3f2205ed	0.6329029
53	0xbe365246	-0.17804822
54	0xbeb75b9e	-0.35812086
55	0xbe6dd6df	-0.23226498
56	0xbed52250	-0.4162774
57	0x3ecee176	0.40406388
58	0xbc934659	-0.01797788
59	0xbdf6e6a6	-0.120557114
60	0x3ec07e57	0.3759639
61	0xbb2570ed	-0.002524431
62	0xbec4b7f9	-0.3842161
63	0x3e9c7b1b	0.30562672
64	0x3f707976	0.93935335
65	0x3daaf65a	0.08347769
66	0x3eac39df	0.33637902
67	0x3f76d05b	0.96411675
68	0x3e2314f7	0.15925966
69	0x3fb5d7fb	1.4206537
70	0x3d7c5fde	0.061614864
71	0xbed67a60	-0.4189024
72	0xbec924aa	-0.39285785
73	0xbd9c8eab	-0.07644399
74	0xbeac94fb	-0.33707413
75	0x3f3c327d	0.7351454
76	0xbdbf431c	-0.09338972
77	0xbd241059	-0.040054653
78	0x3fa38cf2	1.2777388
79	0x3e8f5a58	0.27998614
80	0x3da4f048	0.080536425
81	0xbddd432c	-0.10803828
82	0x3f3692fb	0.71318024
83	0xbc59838a	-0.01327599
84	0x3f101580	0.56282806
85	0x3e62a67c	0.22133821
86	0xbe0fe169	-0.14050831
87	0x3dc7abbc	0.097495526
88	0xbe9ad93e	-0.30243868
89	0x3eb84624	0.35991013
90	0xbd0fb839	-0.035087798
91	0xbcfe82f5	-0.031068305
92	0x3f6de54f	0.9292802
93	0x3e5158b0	0.20443988
94	0xbefb9bad	-0.4914221
95	0x3ef9e9a2	0.4881106
96	0x3f033518	0.5125289
97	0x3d032d22	0.032025464
98	0x3f0d6102	0.5522615
99	0x3f820b99	1.0159789
100	0xbe1e7f6a	-0.15478292
101	0x3f730d70	0.9494238
102	0xbc04307b	-0.008068199
103	0xbeafc37b	-0.34328827
104	0xbec4be58	-0.3842647
105	0xbe857226	-0.2606365
106	0xbe1114cb	-0.14168088
107	0x3f06683d	0.52502805
108	0x3bfa1a0e	0.0076325005
109	0xbe78ffb3	-0.24316292
110	0x3f8a376e	1.0798166
111	0xbec0ddc1	-0.37669185
112	0xbc94f1b2	-0.018181656
113	0xbe1848fe	-0.14871594
114	0x3f2965e3	0.6617109
115	0x3e454828	0.19265807
116	0x3f712636	0.9419893
117	0x3ec846b1	0.39116433
118	0xbd1f58d6	-0.03890308
119	0x3d6ae022	0.057342656
120	0xbebd281e	-0.3694467
121	0xbe57de1a	-0.21080819
122	0xbe19a9ea	-0.15006223
123	0xbda0aa1a	-0.07844944
124	0x3f5785fb	0.8418881
125	0x3e53b1d1	0.206733
126	0xbe5a8c8b	-0.21342675
127	0x3f18c989	0.5968252
128	0x3f76ac8a	0.96357024
129	0xbd371323	-0.044695985
130	0x3ef1fc37	0.47262737
131	0x3f9f4469	1.2442752
132	0x3ebc1dc3	0.36741456
133	0x3f931452	1.1490576
134	0x3dc635ed	0.09678254
135	0xbee95bcf	-0.45577857
136	0xbf010e59	-0.5041252
137	0xbe0c8647	-0.13723098
138	0xbee70b55	-0.45125833
139	0x3f106a4c	0.56412196
140	0xbe049609	-0.12947859
141	0xbe7c0e2d	-0.24614783
142	0x3f9ab98f	1.2087878
143	0x3c76e224	0.015068565
144	0xbec458b4	-0.38348925
145	0xbe687a29	-0.2270285
146	0x3f3ebf6d	0.7451084
147	0x3dad1d7a	0.08452888
148	0x3f2238b4	0.6336777
149	0x3d5a3c00	0.053279877
150	0x3da0591e	0.07829498
151	0xbddf61ab	-0.109073006
152	0xbf0319ca	-0.51211226
153	0x3e67ea0b	0.22647874
154	0x3d7fc6f2	0.06244559
155	0xbe91edbb	-0.28501686
156	0x3f7b7881	0.9823075
157	0x3e92a6ef	0.28642985
158	0xbf0b064c	-0.54306483
159	0x3f4b5922	0.7943288
160	0x3f4ab8f8	0.7918849
161	0xbdae4a2f	-0.08510243
162	0x3e57fdc7	0.21092902
163	0x3f9796f0	1.1842937
164	0x3e577964	0.210424
165	0x3f8cee55	1.1010233
166	0xbde51bb8	-0.111869276
167	0xbf54e733	-0.8316528
168	0xbf05e0a9	-0.5229593
169	0xbd539326	-0.051654004
170	0xbebb6d09	-0.36606625
171	0x3f16d3ed	0.58917123
172	0xbdf3038a	-0.118659094
173	0xbe6b328f	-0.22968505
174	0x3fac1d5f	1.3446463
175	0x3d1cb6d3	0.038260292
176	0xbeb3738c	-0.35049093
177	0xbe0348f6	-0.12820801
178	0x3f35052c	0.70711017
179	0xbe25f740	-0.162076
180	0x3f25815c	0.6465051
181	0xbe87f95c	-0.26557434
182	0xbe6dd635	-0.23226245
183	0x3d90e621	0.070751436
184	0xbf6f48b7	-0.9347033
185	0x3db8b33f	0.090185635
186	0x3d2cd163	0.042191874
187	0xbe9d1f51	-0.30687955
188	0x3f4050df	0.751234
189	0x3f16e193	0.5893795
190	0xbf2e7f18	-0.6816268
191	0x3f325e58	0.6967521
192	0x3f1da2bb	0.6157643
193	0xbda6ef8b	-0.08151158
194	0x3e0e9f7b	0.13928024
195	0x3f59a931	0.8502379
196	0x3d9f6b8f	0.07784187
197	0x3f8beeab	1.0932211
198	0x3d2768f1	0.040871564
199	0xbe544c62	-0.20732263
200	0xbe7bbabd	-0.24582954
201	0xbe148704	-0.1450463
202	0xbec1cf3e	-0.37853426
203	0x3f28f99f	0.6600589
204	0x3c245ad9	0.010031425
205	0xbdec7d28	-0.11547309
206	0x3fa91643	1.3209919
207	0x3e17a041	0.14807226
208	0xbdc0bb87	-0.09410768
209	0xbcf386fd	-0.029727453
210	0x3ec2cc43	0.38046464
211	0x3bd2d295	0.0064337947
212	0x3f21c85a	0.6319634
213	0xbda4b4ef	-0.08042323
214	0xbe874371	-0.2641864
215	0x3b29fdd0	0.0025938638
216	0xbec46230	-0.3835616
217	0x3de6e383	0.11273863
218	0x3d1448ff	0.036202427
219	0xbe99cf3c	-0.3004092
220	0x3f2af041	0.6677285
221	0x3da2a5f0	0.07941806
222	0xbeb52da2	-0.35386378
223	0x3f2aa42e	0.6665677
224	0x3f477bd1	0.77923304
225	0xbda56b65	-0.080771245
226	0xbe468a07	-0.19388591
227	0x3f823da8	1.0175066
228	0xbd8ec7bd	-0.06971691
229	0x3fac130b	1.3443311
230	0xbd9058e5	-0.07048205
231	0xbf0cf11c	-0.55055404
232	0xbeceb6e7	-0.40373918
233	0xbdee5b81	-0.11638547
234	0xbe5eab31	-0.21744992
235	0x3f17c196	0.59279764
236	0x3cb9a0f2	0.022659753
237	0xbe6ac2c8	-0.22925866
238	0x3f899416	1.0748317
239	0x3e598cd0	0.21245122
240	0xbc2113a0	-0.009831339
241	0xbdbf1745	-0.0933061
242	0x3f3c1525	0.73469764
243	0x3b2dedb8	0.0026539396
244	0x3f444f53	0.7668354
245	0x3e8ad74e	0.2711739
246	0xbf03c667	-0.5147461
247	0x3dccb232	0.099949256
248	0xbf0e4c0e	-0.555848
249	0x3df8081a	0.1211092
250	0x3cf06019	0.029342698
251	0xbe56e0a0	-0.20984125
252	0x3f4094f7	0.752273
253	0x3e20bc57	0.15696846
254	0xbf11ceda	-0.56956255
255	0x3e856b7e	0.26058573

onnx::MatMul_27 f4 [32, 32]
0	0xbf15cfd3	-0.5852024
1	0x3d918550	0.071055055
2	0x3ebfbaa3	0.3744708
3	0xbe109018	-0.14117467
4	0xbe9f1460	-0.31070232
5	0x3f0f5dbd	0.5600241
6	0xbd0fe38e	-0.035129122
7	0xbeb4f651	-0.35344175
8	0xbe6d6df2	-0.23186472
9	0xbd9d8110	-0.07690632
10	0xbc1179ba	-0.0088791195
11	0xbe5cd0b6	-0.21563992
12	0xbdde5044	-0.10855153
13	0x3e1198c2	0.14218429
14	0x3d2ed773	0.042685937
15	0xbdce9c95	-0.100884594
16	0x3e06c1d9	0.13159885
17	0xbbde26d1	-0.0067795296
18	0xbde26d12	-0.1105596
19	0xba649a00	-0.00087204576
20	0x3f3bc3e8	0.73345804
21	0x3f3dbdd8	0.74117804
22	0x3d9eb7ad	0.07749877
23	0xbe693045	-0.2277232
24	0xbe26f139	-0.16302957
25	0x3f239ffd	0.63916
26	0xbdb5b233	-0.088718794
27	0x3f1bc1ae	0.60842407
28	0xbdec54e0	-0.11539626
29	0x3f88ce8b	1.0688032
30	0xbe060550	-0.13087964
31	0x3f0d91f2	0.5530082
32	0xbe4a7115	-0.197697
33	0x3e3eb0f8	0.18622196
34	0x3dbbbbf6	0.0916671
35	0x3dcb6147	0.099306636
36	0x3e4748f5	0.19461425
37	0xbe1d17b2	-0.1534107
38	0x3d4c8cd1	0.04993898
39	0xbd82545b	-0.06363746
40	0xbdda8b98	-0.10671157
41	0x3da6e3f5	0.08148948
42	0x3d49de3d	0.04928421
43	0x3dc9fa64	0.09862211
44	0xbdf425ec	-0.119212955
45	0x3dd13997	0.102160625
46	0x3c5dfd49	0.013549157
47	0x3b83d316	0.004022966
48	0x3e057ccf	0.13035892
49	0x3d331dad	0.043729473
50	0xbd7da2bc	-0.061922774
51	0xbd57b382	-0.052661426
52	0x3d8cbcb2	0.06871928
53	0x3ecbeb19	0.39827803
54	0xbda55dfe	-0.08074568
55	0x3d365e3d	0.044523466
56	0xbd830b80	-0.06398678
57	0x3c6866b5	0.0141846435
58	0x3c1babb1	0.009501384
59	0xbdd5e079	-0.104432054
60	0x3d5fdf77	0.054656472
61	0xbe38b852	-0.18039063
62	0xbe0556ad	-0.13021345
63	0x3c300cac	0.010745209
64	0x3cd13c3e	0.025541421
65	0x3d86959d	0.06571505
66	0xbd8d1f68	-0.06890756
67	0xbe295805	-0.16537483
68	0xbba38f80	-0.004991472
69	0x3e98d21a	0.29847795
70	0xbf297cf5	-0.66206294
71	0xbe1c8412	-0.15284756
72	0x3ce2755e	0.027643856
73	0xbd08ce41	-0.033399824
74	0xbe66de63	-0.22545771
75	0xbdff3962	-0.12462117
76	0x3a8eb16a	0.0010886614
77	0xbd1616b2	-0.036642738
78	0x3db7e86b	0.08979877
79	0xbe5b5fc8	-0.21423256
80	0x3e20cfb9	0.1570424
81	0xbecfd907	-0.40595266
82	0x3af63cd0	0.0018786434
83	0xbe217a5b	-0.15769331
84	0x3eb2878b	0.34869036
85	0x3e25ee24	0.16204125
86	0x3d8d6afb	0.069051705
87	0xbe547c07	-0.20750438
88	0x3c0c78c0	0.008573711
89	0x3e6f4467	0.23365937
90	0x3dc93275	0.09824077
91	0x3e168787	0.14700137
92	0xbe3c47a0	-0.18386698
93	0x3e7d875c	0.24758667
94	0xbd77f55d	-0.06053673
95	0xbdcfebcc	-0.101523966
96	0xbeb4ac9a	-0.35287935
97	0xbed5ce37	-0.41758892
98	0xbedc0261	-0.42970565
99	0xbdf75718	-0.12077159
100	0xbec06e5f	-0.37584206
101	0x3f8fa00f	1.1220721
102	0xbf9741a5	-1.1816908
103	0xbe548bcc	-0.20756453
104	0xbeb8ebad	-0.36117306
105	0xbee66d12	-0.4500509
106	0x3e84037f	0.25783917
107	0xbed27d23	-0.41111097
108	0xbeaeb879	-0.34125116
109	0xbf1291f7	-0.57253975
110	0xbeed2428	-0.46316648
111	0xbf1db445	-0.61603194
112	0xbe05efe9	-0.130798
113	0xbf1a9518	-0.6038375
114	0xbf2ca7a5	-0.67443305
115	0xbe9eb991	-0.3100095
116	0x3f50d541	0.815754
117	0x3f3f2167	0.7466034
118	0x3de468c5	0.11152796
119	0xbeff5b10	-0.49874163
120	0xbcaac959	-0.020847963
121	0x3f65b5d5	0.8973058
122	0xbea8254c	-0.32840955
123	0x3f337a3b	0.70108384
124	0xbd93b4ea	-0.07212241
125	0x3f829974	1.020308
126	0x3e3a39ef	0.18186162
127	0xbe098ade	-0.1343188
128	0x3de8782b	0.11351045
129	0xbe287808	-0.16452038
130	0xbe82085b	-0.25397
131	0xbdd70a45	-0.10500006
132	0xbdbd6c77	-0.09249204
133	0x3dd3d6e8	0.103437245
134	0xbd27f387	-0.04100373
135	0xbe071d3f	-0.1319475
136	0xbd3f1f4c	-0.046660706
137	0xbedb98f5	-0.42890134
138	0xbe65ee85	-0.22454269
139	0xbdf0b33b	-0.117529355
140	0x3db56e24	0.08858898
141	0x3df1bee4	0.118039876
142	0xbd4a8663	-0.049444567
143	0xbe68bc5d	-0.22728105
144	0x3d228466	0.039677046
145	0x3a81c288	0.0009899894
146	0xbc89b9ec	-0.016812287
147	0x3e2584ec	0.16163987
148	0x3ed9c68b	0.4253429
149	0x3e853c26	0.26022452
150	0x3cc2e739	0.023791896
151	0xbb6aaf47	-0.003581004
152	0xbcabc14d	-0.020966196
153	0x3e56b8b2	0.20968893
154	0x3e1ab160	0.15106726
155	0x3eca6a67	0.39534304
156	0xbd2fff7e	-0.042968266
157	0x3f06d522	0.52668965
158	0x3e1f9c64	0.15587002
159	0x3e56791d	0.20944639
160	0xbe99eeaf	-0.30064914
161	0xbe098bcb	-0.13432233
162	0x3df5983f	0.11991929
163	0xbddeac54	-0.10872713
164	0xbec2893b	-0.37995324
165	0x3f885a15	1.0652491
166	0xbef8ef70	-0.48620176
167	0xbe9fd9f0	-0.3122096
168	0xbe8acb98	-0.27108455
169	0xbecadf51	-0.39623502
170	0xbc846b80	-0.016164541
171	0xbe8bebc0	-0.273283
172	0xbe032981	-0.12808801
173	0xbedb18e9	-0.42792442
174	0xbab9c015	-0.0014171625
175	0xbe4a02fa	-0.19727698
176	0xbbef08d7	-0.007294755
177	0xbe1ab11e	-0.15106627
178	0xbe9bf6a8	-0.3046162
179	0xbd679369	-0.056537066
180	0x3f702289	0.93802696
181	0x3f1f68e5	0.6226943
182	0x3e0aa065	0.13537748
183	0xbe8e6ef3	-0.27819023
184	0x3c7896f3	0.015172708
185	0x3f72707c	0.9470289
186	0xbe6b3afb	-0.22971718
187	0x3f381d5a	0.71919787
188	0xbd844c26	-0.06459837
189	0x3f8579de	1.0427816
190	0x3dc834c4	0.09775689
191	0x3e0831d3	0.13300256
192	0xbdb79a44	-0.08964971
193	0xbdf2a197	-0.11847227
194	0x3d1e2d1a	0.03861723
195	0x3dacc86b	0.08436664
196	0xbd2520ac	-0.04031436
197	0xbe0bd864	-0.13656765
198	0xbe1ef894	-0.15524513
199	0x3e19217d	0.14954181
200	0xbb2ba8c6	-0.0026193126
201	0xbe459826	-0.19296321
202	0xbe668c34	-0.22514421
203	0xbd3229ab	-0.04349677
204	0xbd298a9e	-0.04139196
205	0x3e46908a	0.19391075
206	0x3d28dc8e	0.041225962
207	0x3db698d0	0.089158654
208	0xbdcc2cc9	-0.099694796
209	0x3e323527	0.17403089
210	0x3e2be79a	0.16787568
211	0x3debc903	0.11512949
212	0x3e2a11fa	0.1660842
213	0x3eb11b26	0.34591025
214	0xbc786e65	-0.015163039
215	0xbdca8993	-0.098895214
216	0xbcf472eb	-0.029839953
217	0x3d7700f7	0.060303655
218	0x3e5a1b3c	0.21299452
219	0x3cab4e18	0.020911261
220	0x3e0320ba	0.12805453
221	0x3da744c8	0.08167416
222	0x3dc775fd	0.09739301
223	0xbdbe61c6	-0.092959926
224	0x3e33e322	0.17567113
225	0x3b800aa7	0.00390752
226	0x3e902042	0.2814961
227	0xbe1400e5	-0.14453466
228	0x3ebe0e85	0.37120453
229	0xbf5f61a7	-0.8725838
230	0x3ebf8eca	0.37413627
231	0x3e77bc90	0.24193025
232	0x3eb59654	0.35466254
233	0x3e9f24c2	0.3108273
234	0x3d938586	0.07203202
235	0x3e3a79ea	0.18210569
236	0x3e54e6d2	0.20791176
237	0x3e50a7f8	0.20376575
238	0x3d65d044	0.05610682
239	0x3ec0e7be	0.37676805
240	0x3cefead5	0.029286781
241	0x3eb57c7d	0.3544654
242	0x3e50c959	0.20389308
243	0x3df479b6	0.11937277
244	0xbf44a204	-0.76809716
245	0xbf3d1c2b	-0.73871106
246	0xbe9c15cb	-0.30485377
247	0x3ef42ffe	0.47692865
248	0xbe12dbf5	-0.1434172
249	0xbf472614	-0.7779248
250	0x3d4ce0f4	0.05001922
251	0xbf4c40e2	-0.79786503
252	0xbd238954	-0.03992589
253	0x3e8c5040	0.27404976
254	0xbd80558b	-0.06266316
255	0x3d701821	0.05861676

onnx::MatMul_28 f4 [32, 2]
0	0xbeaaafcd	-0.3333725
1	0x3e90df4b	0.2829536
2	0xbeb016eb	-0.34392485
3	0x3e5996d5	0.21248944
4	0xbe6db66a	-0.23214117
5	0x3e73300c	0.23748797
6	0xbdb18cf4	-0.08669463
7	0xbd6738cb	-0.056450646
8	0xbed7b5b8	-0.42130828
9	0x3ed9f797	0.4257171
10	0x3f8a04a1	1.0782663
11	0xbf9dd281	-1.2329866
12	0xbf61f9ce	-0.88271797
13	0x3f60cf06	0.8781589
14	0xbed55927	-0.4166958
15	0x3e87c89f	0.2652025
16	0xbea1fee1	-0.3163977
17	0x3ee856bb	0.4537867
18	0xbe9cca9a	-0.30623323
19	0x3efd49b8	0.49470305
20	0xbd8b4224	-0.06799725
21	0xbd6f3a7d	-0.05840539
22	0xbecfa516	-0.40555638
23	0x3ebbd9b5	0.36689535
24	0xbed955db	-0.42448315
25	0x3eb1035a	0.3457287
26	0xbec3b1e7	-0.38221666
27	0x3e7e514a	0.24835697
28	0xbea49e17	-0.32151863
29	0x3e46f777	0.19430338
30	0xbf0cc6a5	-0.5499061
31	0x3e85de9a	0.26146394
32	0xbe2397cf	-0.15975879
33	0xbb99defa	-0.0046957703
34	0xbf04d86f	-0.5189275
35	0x3efc193e	0.49238008
36	0xbf01c5fa	-0.50692713
37	0x3ee0d620	0.43913364
38	0xbeff949c	-0.49918067
39	0x3ed21616	0.41032475
40	0x3f9c99fa	1.223449
41	0xbfa4e6f4	-1.2882981
42	0x3f47298f	0.7779779
43	0xbf1dc904	-0.6163485
44	0x3d1ee3b3	0.03879137
45	0x3d804a16	0.06264131
46	0xbefb9252	-0.4913507
47	0x3f0db014	0.553468
48	0xbddd5199	-0.10806579
49	0xbdac9428	-0.08426696
50	0x3f8b7e74	1.0897965
51	0xbf8c50ef	-1.0962199
52	0xbe9fb5b4	-0.31193316
53	0x3ee27175	0.44227186
54	0x3f415690	0.7552271
55	0xbf4d0b8b	-0.8009574
56	0xbdddc4d5	-0.10828558
57	0xbe0d87f9	-0.138214
58	0x3fb9e19d	1.4521977
59	0xbfcc3e2e	-1.5956476
60	0x3d065740	0.03279805
61	0x3d9cb792	0.07652201
62	0x3d14df68	0.03634587
63	0x3c9e93b2	0.019357536
