trained_network.onnx (onnx, 61595 bytes, 8 tensors)

hidden1.bias f4 [32]
0	0x3e21a28b	0.15784661
1	0xbeb86549	-0.36014774
2	0xbdd6071f	-0.10450577
3	0xbd7a77c3	-0.06114937
4	0xbd1896ef	-0.037253316
5	0xbf3f423b	-0.74710435
6	0xbee9ef4d	-0.45690385
7	0xbe6b57ff	-0.22982787
8	0xbe5f8466	-0.2182785
9	0xbda0ddb1	-0.07854784
10	0xbec7094d	-0.38874283
11	0xbee9e637	-0.45683452
12	0xbe892d86	-0.26792544
13	0xbd6b985c	-0.057518348
14	0xbea437d8	-0.32073855
15	0xbeb3aef4	-0.35094416
16	0xbe723431	-0.23652722
17	0xbfa9ee73	-1.3275894
18	0xbef4dc3d	-0.47824278
19	0xbee25d35	-0.44211736
20	0xbeb2f2f3	-0.3495098
21	0xbe441b0f	-0.19150947
22	0xbe343c18	-0.17601049
23	0xbe962316	-0.29323643
24	0xbe9437c3	-0.28948793
25	0x3d5a5498	0.05330333
26	0xbee03d4b	-0.43796763
27	0xbf982f18	-1.1889372
28	0x3da234eb	0.079202496
29	0xbd9fbb16	-0.07799356
30	0xbc4f6183	-0.012657526
31	0xbf64911d	-0.89283925

hidden2.bias f4 [16]
0	0xbf21ad4a	-0.63155043
1	0xbe86df2e	-0.26342148
2	0xbdaa4b13	-0.083151005
3	0xbe3bfd5b	-0.18358366
4	0xbe6d6d84	-0.23186308
5	0xbf1da77a	-0.61583674
6	0xbc0babb0	-0.00852482
7	0xbefd3dea	-0.494613
8	0xbef6a6f1	-0.4817424
9	0xbe733483	-0.237505
10	0xbef1df00	-0.47240448
11	0xbeea4ba6	-0.4576084
12	0xbf2b35dc	-0.6687906
13	0xbbce87ad	-0.006302795
14	0xbcc4469f	-0.023959456
15	0xbc08b169	-0.008343079

hidden3.bias f4 [16]
0	0xbe9c1d10	-0.30490923
1	0x4004991c	2.071845
2	0x3feb0ee9	1.8363925
3	0x403421a5	2.8145535
4	0xbeb77d16	-0.3583762
5	0xbe4e1c4b	-0.2012798
6	0xbe89936a	-0.2687028
7	0xbdd77761	-0.105208166
8	0xbe821ce4	-0.25412667
9	0xbe78c6e6	-0.24294624
10	0xbea43b74	-0.3207661
11	0xbe2f9a91	-0.17148806
12	0xbe972666	-0.29521483
13	0xbe7ae862	-0.2450271
14	0xbe34dece	-0.17663118
15	0x3fb8fefd	1.4452816

output.bias f4 [2]
0	0xc049822c	-3.14857
1	0x40451d3e	3.0799098

onnx::MatMul_25 f4 [80, 32]
0	0xbfa01435	-1.2506167
1	0x3e8ab476	0.27090806
2	0xbeed161c	-0.4630593
3	0x3f0ebbab	0.5575511
4	0x3eed1017	0.46301338
5	0x3ec42637	0.38310406
6	0x3e8f2f51	0.27965787
7	0x3d121173	0.035661172
8	0xbd853331	-0.065039046
9	0x3f3b417a	0.73146784
10	0xbd3e3cfc	-0.046444878
11	0xbe302915	-0.17203172
12	0x3db534fb	0.08847996
13	0x3e1b98af	0.15194963
14	0xbf761f41	-0.9614144
15	0xbeb5dd33	-0.35520324
16	0x3ea4c8dc	0.32184494
17	0x3dcf33c7	0.101172976
18	0xbdddcca3	-0.10830047
19	0x3f25d4c0	0.64777756
20	0xbef5057f	-0.47855756
21	0x3e5aa958	0.21353662
22	0x3e1a219d	0.15051885
23	0x3eae2c99	0.340184
24	0x3e0b0e08	0.13579571
25	0xbf285866	-0.65759885
26	0xbe6ed9fc	-0.23325342
27	0x3ea8a2ac	0.3293661
28	0xbf545dbe	-0.8295554
29	0xbe4dabe4	-0.20085102
30	0xbf971692	-1.1803763
31	0x3e659a9e	0.22422263
32	0x3e769f58	0.24084222
33	0x3ee3071a	0.44341356
34	0xbf831d56	-1.0243328
35	0xbf864c87	-1.0492104
36	0xbfb4a7c4	-1.4113698
37	0x3edf81a3	0.43653592
38	0xbedd2c71	-0.4319797
39	0xbf7020e4	-0.9380019
40	0x3ed6a8cf	0.41925666
41	0xbf533626	-0.825045
42	0xbf225f6b	-0.63426846
43	0xbe3fe456	-0.18739447
44	0xbeb7789b	-0.35834202
45	0x3e705b54	0.23472339
46	0x3df9cba4	0.121970445
47	0x3ea0e079	0.3142126
48	0xbfb82634	-1.4386659
49	0x3eac2171	0.33619264
50	0x3e90118b	0.28138384
51	0xbf8da961	-1.1067315
52	0x3d2e0aa0	0.0424906
53	0xbd4e7f3d	-0.050414313
54	0x3f1a859c	0.6036012
55	0xbe9c036d	-0.30471364
56	0x3f1a61cb	0.6030547
57	0xbd9dc080	-0.07702732
58	0xbcd764c3	-0.026293164
59	0x3f344614	0.7041943
60	0x3dee39b3	0.11632099
61	0x3decae0b	0.115566336
62	0x3f283ee7	0.6572098
63	0x3e83f413	0.2577215
64	0x3f13eda0	0.5778446
65	0xbe914335	-0.28371587
66	0x3d29e418	0.041477293
67	0xbede0eff	-0.43370816
68	0xbe8937ed	-0.2680048
69	0x3dae5408	0.085121214
70	0x3ebec189	0.3725703
71	0x3e2926c3	0.16518693
72	0xbf171ecf	-0.59031385
73	0xbf0e97ee	-0.55700576
74	0x3c9763e9	0.018480258
75	0x3edb581c	0.4284066
76	0xbdc58668	-0.096447766
77	0x3e15f8bf	0.1464567
78	0x3c922484	0.017839678
79	0xbf42e030	-0.7612333
80	0xbea1c3b0	-0.3159461
81	0x3ef9bb44	0.48775685
82	0x3e2c2f2d	0.16814871
83	0x3e70a351	0.234998
84	0xbe5aa2fb	-0.21351235
85	0xbd89dba9	-0.0673135
86	0x3e9634d9	0.29337195
87	0xbe016389	-0.12635626
88	0x3dde10b1	0.108430274
89	0xbeaad8f8	-0.3336866
90	0x3d17e1e0	0.037080646
91	0xbe2ff84d	-0.17184563
92	0xbf8f3ba8	-1.1190081
93	0xbfd3fb56	-1.6561077
94	0xbf651455	-0.8948415
95	0x3e1b3b88	0.15159428
96	0xbda8ca4f	-0.08241712
97	0x3da05fab	0.07830747
98	0xbb99a981	-0.004689396
99	0xbebf0a11	-0.37312368
100	0x3e115af8	0.14194858
101	0x3d8111c1	0.063022144
102	0xbdf92266	-0.12164764
103	0x3e68dfda	0.22741643
104	0x3e856872	0.26056248
105	0x3da5076e	0.08058058
106	0x3cf82c4d	0.030294562
107	0x3f114e1a	0.567598
108	0x3cacd301	0.021096708
109	0xbf1cdebd	-0.6127737
110	0xbd409cbf	-0.047024485
111	0xbdffae72	-0.12484445
112	0x3e01c2ef	0.12672018
113	0x3e936c86	0.28793734
114	0xbef03f0f	-0.4692311
115	0xbd2586be	-0.040411703
116	0xbea3fad5	-0.32027307
117	0x3e832baa	0.2561925
118	0x3ea0341a	0.3128975
119	0x3d26f414	0.040760115
120	0xbe94b4af	-0.290441
121	0x3e39367e	0.18087193
122	0xbe1990ec	-0.1499669
123	0x3eed6102	0.46363074
124	0xbcff6fea	-0.031181294
125	0x3e6914e5	0.22761877
126	0xbe7c2425	-0.24623163
127	0xbe0fdff3	-0.14050274
128	0x3eafae0c	0.34312475
129	0xbd77784b	-0.060417455
130	0x3ee3335f	0.4437513
131	0xbfd5196c	-1.6648383
132	0xbfb144ff	-1.3849181
133	0x3dca97fe	0.098922715
134	0xbeb1e840	-0.34747505
135	0xbeb4ffdd	-0.35351458
136	0xbe3b670a	-0.18301025
137	0x3eb71489	0.35757855
138	0xbe031fc0	-0.1280508
139	0x3e50bb50	0.20383954
140	0xbda039bb	-0.07823511
141	0xbec6e4a8	-0.38846326
142	0xbe76bb17	-0.24094807
143	0x3e26b2ac	0.16279095
144	0xbeaf4166	-0.34229583
145	0xbd968efd	-0.073514916
146	0x3e176aa6	0.14786777
147	0xbe40bd71	-0.18822266
148	0x3e6d997a	0.23203078
149	0xbe13bcb6	-0.14427456
150	0xbdef6481	-0.116890915
151	0xbf1ae91e	-0.6051196
152	0xbf6f5b6c	-0.93498874
153	0xbe204497	-0.15651165
154	0x3ed0ab47	0.40755674
155	0xbe5a6d8c	-0.21330851
156	0xbedde1ad	-0.4333624
157	0x3f069af9	0.5258022
158	0x3e23f02b	0.16009586
159	0x3f8bb255	1.0913798
160	0xbee9d864	-0.45672905
161	0x3edff9e0	0.43745327
162	0xbd0142b5	-0.031557757
163	0x3e8a3663	0.2699462
164	0xbf57bb85	-0.8427051
165	0xbea65605	-0.32487503
166	0xbdb21b35	-0.086965956
167	0x3e56d08a	0.20977989
168	0x3ea4e20a	0.32203704
169	0x3d3a14e7	0.04543009
170	0xbd185795	-0.0371929
171	0xbe20f947	-0.15720092
172	0xbcc4c536	-0.024019819
173	0xbe9a26f0	-0.30107832
174	0x3f2315d8	0.63705206
175	0xbee2bf8b	-0.4428676
176	0x3ec9acba	0.39389592
177	0x3f39fa52	0.72647583
178	0xbe010dad	-0.12602873
179	0xbf2ed0ed	-0.68287545
180	0x3e12e33e	0.14344499
181	0xbd82792b	-0.06370767
182	0xbe8203e9	-0.25393608
183	0x3e9192e2	0.28432375
184	0x3e8723a5	0.26394382
185	0xbf512c62	-0.8170835
186	0x3e89523b	0.2682055
187	0x3e9af731	0.30266717
188	0xbec18986	-0.37800235
189	0x3e8c086b	0.27350172
190	0xbdb35d0e	-0.08757983
191	0xbeb20c0e	-0.34774822
192	0x3d7259fb	0.059167843
193	0xbf36634b	-0.7124526
194	0xbe642de1	-0.22283126
195	0x3ed82371	0.4221454
196	0x3e034bba	0.12821856
197	0x3d10d32e	0.035357647
198	0x3ea62537	0.32450268
199	0x3d1f3f11	0.038878504
200	0xbf2f199f	-0.6839847
201	0xbeef579d	-0.4674653
202	0xbd7538d7	-0.05986866
203	0xbed9a61a	-0.42509538
204	0x3f71bc5b	0.9442803
205	0xbd9a1b5a	-0.07524748
206	0x3c28d2fe	0.010304211
207	0x3f12bd5f	0.5732021
208	0xbe6e0af4	-0.23246366
209	0x3f0b7df9	0.54489094
210	0xbe52ab99	-0.20573272
211	0x3e1cfbb3	0.1533039
212	0x3ea7a2b4	0.3274132
213	0x3d7bafea	0.06144706
214	0x3e97fbd6	0.29684323
215	0x3e1fdddc	0.15611976
216	0x3e3de24d	0.18543358
217	0xbd2012a0	-0.039080262
218	0x3c35f2a0	0.01110521
219	0xbcf3b545	-0.029749522
220	0x3e5192c0	0.20466137
221	0xbf36d3ba	-0.7141682
222	0xbddd9a4f	-0.10820448
223	0x3e24396a	0.16037527
224	0xbf86aa23	-1.0520672
225	0xbec5731e	-0.3856439
226	0xbe5da48b	-0.216448
227	0xbed68cec	-0.4190439
228	0xbfa160e4	-1.2607694
229	0x3bf48086	0.0074616103
230	0xbdb32076	-0.08746426
231	0x3df6f97f	0.12059306
232	0xbeb3eba5	-0.3514072
233	0x3e8a10a7	0.2696583
234	0xbf3c0862	-0.7345029
235	0x3eef09c6	0.46687144
236	0x3efc527a	0.49281675
237	0x3e605abb	0.21909611
238	0xbe50afad	-0.20379515
239	0xbe8d2245	-0.27565208
240	0xbf70e1af	-0.94094366
241	0xbe0b1ec2	-0.13585952
242	0x3db08aec	0.08620247
243	0x3e91ef63	0.2850295
244	0x3e0b8749	0.13625826
245	0x3e33731c	0.1752438
246	0x3dfad673	0.12247934
247	0x3f2298fc	0.63514686
248	0x3dc5cac4	0.09657815
249	0x3ed103ea	0.408233
250	0x3ecd6234	0.40113986
251	0x3eb421b3	0.3518196
252	0xbd971d84	-0.073786765
253	0xbf269a8b	-0.65079564
254	0xbe038d2d	-0.12846823
255	0x3e1fea23	0.1561666

onnx::MatMul_26 f4 [32, 16]
0	0xbedd5cd9	-0.432349
1	0xbf2ddddc	-0.67916656
2	0xbeae25a7	-0.340131
3	0xbf2d7f35	-0.6777223
4	0xbedc3414	-0.43008482
5	0x3f7997ba	0.9749714
6	0xbf3cebe2	-0.7379743
7	0x3e6f7c01	0.23387147
8	0x3f0904a2	0.53522694
9	0xbed311bd	-0.4122447
10	0x3faa80cb	1.3320554
11	0xbfa57c77	-1.2928609
12	0xbe4b84ea	-0.19874921
13	0xbf427117	-0.7595381
14	0xbf2a9871	-0.6663886
15	0xbf67cbee	-0.90545547
16	0xbf5a7541	-0.85335165
17	0x3f888a11	1.0667135
18	0x3fa982e8	1.3243074
19	0x3f45cedc	0.7726877
20	0x3f903142	1.1265032
21	0xbf802095	-1.0009943
22	0x3f8b459e	1.088062
23	0xbd1f144b	-0.038837712
24	0xbf6cb0db	-0.9245736
25	0x3f0e6c1c	0.5563371
26	0xbf94dc56	-1.1629741
27	0xbea70f3c	-0.3262881
28	0xbf6017a7	-0.8753609
29	0x3f0c0ab5	0.5470384
30	0x3f2a043d	0.6641272
31	0x3f2161ee	0.63040054
32	0x3f16d1df	0.5891399
33	0xbf00b8c2	-0.5028192
34	0xbec829df	-0.39094445
35	0xbf3492d3	-0.70536536
36	0xbe1e2d84	-0.1544705
37	0x3f08cfdc	0.5344217
38	0xbf2af763	-0.6678373
39	0x3d665fbb	0.05624364
40	0x3f081c45	0.53168136
41	0x3e26aaba	0.16276065
42	0x3e30c537	0.17262731
43	0xbf544d87	-0.829308
44	0x3edd44dc	0.43216598
45	0xbfb2b465	-1.3961302
46	0xbf11f4b1	-0.57013994
47	0xbf449f58	-0.7680564
48	0x3f531690	0.824563
49	0xbe0d6920	-0.13809633
50	0x3e52e8a9	0.20596565
51	0xbf146f4f	-0.57982343
52	0xbe2cd922	-0.16879705
53	0x3f4bf22b	0.79666394
54	0xbf238f81	-0.63890845
55	0x3e3cfc7d	0.18455692
56	0x3f385591	0.72005564
57	0x396abbac	0.00022385892
58	0xbce37567	-0.027765943
59	0x3e67e5a2	0.22646192
60	0x3f48ff53	0.78514594
61	0xbf6feb15	-0.9371808
62	0xbf5f9dec	-0.87350345
63	0xbf262cba	-0.64912
64	0x3f5b9222	0.85769856
65	0x3eb1008e	0.34570736
66	0x3d8db6cb	0.069196306
67	0xbf2e3306	-0.68046606
68	0x3ecb37f4	0.39691126
69	0x3f764a44	0.9620707
70	0xbf0edb29	-0.5580316
71	0x3f501b40	0.8129158
72	0x3f6546f8	0.89561415
73	0x3e1410c3	0.14459519
74	0x3ee6cef3	0.45079765
75	0xbe6b917b	-0.23004715
76	0x3f46d646	0.77670705
77	0xbf3946c2	-0.7237359
78	0xbe9643cb	-0.29348597
79	0xbefefbec	-0.49801576
80	0x3f12ea74	0.57389
81	0x3fa9b7ae	1.325918
82	0xbeeeca33	-0.4663864
83	0x3f41c0d6	0.7568487
84	0x3fb6f052	1.429209
85	0x3eb221bf	0.3479137
86	0x3f708a99	0.93961483
87	0x3efcd460	0.4938078
88	0x3ea4a4ff	0.32157132
89	0x3f9b0f20	1.2113991
90	0x3e03620b	0.12830369
91	0x3e0707e8	0.1318661
92	0x3eeab64e	0.45842212
93	0x3f2c0ac0	0.67203903
94	0x3f19b4d2	0.60041535
95	0x3f6d1b0a	0.92619383
96	0x3f81e4f0	1.0147991
97	0x3f486ea1	0.78293806
98	0xbf20b6ce	-0.6277894
99	0xbe879648	-0.26481843
100	0x3f9847be	1.1896894
101	0x3f88b929	1.0681506
102	0xbec2036a	-0.3789323
103	0x3fa164e4	1.2608914
104	0x3f9118fe	1.1335752
105	0x3fa51df1	1.2899762
106	0x3f06db04	0.5267794
107	0xbe080e52	-0.13286713
108	0x3f7bb659	0.98325115
109	0xbdcd7331	-0.10031737
110	0xbe8f878b	-0.280331
111	0xbcfb59fb	-0.030682554
112	0x3f995244	1.197823
113	0xbe39bffa	-0.1813964
114	0xbd937568	-0.07200128
115	0xbec89dd8	-0.39182925
116	0x3e669a3b	0.22519772
117	0x3f856c45	1.0423666
118	0xbf15f565	-0.5857757
119	0x3ea8a65e	0.32939428
120	0x3f90fe74	1.1327653
121	0x3f012b8d	0.5045708
122	0x3f96bb7d	1.1775967
123	0x3e4a81ad	0.1977603
124	0x3fa36b91	1.2767202
125	0xbe76d101	-0.24103166
126	0xbf05ceb3	-0.5226852
127	0xbf0a6e26	-0.54074323
128	0x3f81b6f3	1.0133957
129	0x3ee1dad3	0.44112262
130	0xbf86c3aa	-1.0528462
131	0xbec77bf6	-0.38961762
132	0x3f1b9b86	0.60784185
133	0x3f92ad9d	1.1459233
134	0xbed049fc	-0.40681446
135	0x3f24cda9	0.6437631
136	0x3f9d4e94	1.2289605
137	0x3f2e380e	0.6805428
138	0x3e1a7fb4	0.15087777
139	0x3ede3fc7	0.43408033
140	0x3f6671cd	0.90017396
141	0xbec450c9	-0.38342884
142	0x3b014e26	0.0019730418
143	0xbec2f29e	-0.38075727
144	0x3f38960c	0.72103953
145	0xbe005849	-0.12533678
146	0xbf1c4eed	-0.6105793
147	0xbf070984	-0.52748895
148	0x3f1e66de	0.6187571
149	0x3f4182ac	0.75590014
150	0xbf2c19fd	-0.67227155
151	0x3f001dea	0.50045645
152	0x3f418b33	0.75603026
153	0xbddc32fe	-0.107519135
154	0xbea8af19	-0.3294609
155	0x3ce60903	0.028080469
156	0x3f49e58b	0.7886588
157	0xbf91242e	-1.1339166
158	0xbdbdafd1	-0.0926205
159	0xbf7299e7	-0.94766086
160	0xbeed1cf0	-0.4631114
161	0x3f1e10bd	0.6174429
162	0x3ee11ec0	0.43968773
163	0x3ee5de28	0.44896054
164	0x3f02489d	0.5089205
165	0xbf24b03b	-0.64331406
166	0x3efac306	0.48976916
167	0xbdce1cc8	-0.10064083
168	0xbf0940b5	-0.5361436
169	0x3f46f47a	0.7771679
170	0xbe180668	-0.14846194
171	0xbd42b348	-0.047534257
172	0xbee43b07	-0.44576284
173	0x3ea0b0be	0.31384844
174	0x3f489ae0	0.7836132
175	0x3ef4b9e1	0.47798064
176	0xbf177426	-0.59161603
177	0x3f6d1616	0.92611825
178	0x3f007a8e	0.50187004
179	0x3f6bcff1	0.9211417
180	0x3f6348d6	0.88783014
181	0xbf4a077a	-0.7891766
182	0x3f787e91	0.97068125
183	0xbe885895	-0.26630083
184	0xbf292fb6	-0.66088426
185	0x3f85648b	1.0421308
186	0xbf48af1c	-0.78392196
187	0x3ea3f465	0.32022396
188	0xbf032d83	-0.5124132
189	0x3f3154ee	0.6927022
190	0x3f5851f5	0.84500057
191	0x3f6044f8	0.8760524
192	0xbe99cabe	-0.30037493
193	0x3fc696a0	1.5514717
194	0x3f1d369c	0.6141145
195	0x3f883be6	1.064328
196	0x3f8b628c	1.0889449
197	0xbeb9be44	-0.36277974
198	0x3fa5671c	1.2922091
199	0x3e84e89b	0.25958714
200	0xbeb851f3	-0.36000022
201	0x3f88d8fb	1.0691217
202	0xbe0a79c7	-0.13523017
203	0x3e86326b	0.2621034
204	0xbe86c25b	-0.26320156
205	0x3edff61f	0.43742463
206	0x3f6be34d	0.9214371
207	0x3f8db58d	1.107103
208	0x3d3d46df	0.046210166
209	0xbee46769	-0.44610146
210	0xbf4effd1	-0.80859095
211	0xbf0ac577	-0.5420756
212	0xbee29be8	-0.44259572
213	0x3c01a61d	0.00791314
214	0xbf08e424	-0.53473115
215	0x3e739604	0.23787695
216	0x3d4c3d7d	0.049863327
217	0xbf06205d	-0.5239313
218	0x3f99c599	1.2013427
219	0xbe5351b2	-0.20636633
220	0xbcc179d5	-0.023617664
221	0xbf35c089	-0.7099691
222	0xbed08709	-0.40728024
223	0xbed59055	-0.4171168
224	0xbe8ebc50	-0.27878046
225	0x3f4a5e9b	0.79050606
226	0x3f88ddc0	1.0692673
227	0x3ee2ba16	0.44282597
228	0x3f8b8786	1.0900733
229	0xbf09d2ba	-0.5383717
230	0x3f4646cb	0.7745177
231	0xbd9ea3e1	-0.07746101
232	0xbebf4c2e	-0.37362808
233	0x3f0ff88a	0.56238616
234	0xbd8e83df	-0.06958746
235	0xbaacbbbe	-0.001317851
236	0xbebd0efc	-0.36925495
237	0xbd87b5c6	-0.066264674
238	0x3dc9e0e9	0.09857351
239	0x3f013d61	0.5048428
240	0xbe961459	-0.293124
241	0x3f8b9c7a	1.0907128
242	0x3f11291a	0.5670334
243	0x3f372d20	0.7155323
244	0x3f4afa1e	0.792879
245	0xbece2ad7	-0.4026706
246	0x3f9fd84c	1.2487884
247	0x3dcba8cb	0.09944304
248	0xbecbe534	-0.39823306
249	0x3f92aa87	1.1458291
250	0xbe903eea	-0.28173
251	0xbe98dbe5	-0.29855266
252	0xbf0818bd	-0.5316275
253	0x3f03c508	0.5147252
254	0x3ed4dd51	0.415751
255	0x3f8634a1	1.0484811

onnx::MatMul_27 f4 [16, 16]
0	0xbfd7bd83	-1.6854709
1	0x3f6fa941	0.93617636
2	0x3f4141a0	0.7549076
3	0x3f2acc73	0.66718215
4	0xbfb62f55	-1.4233195
5	0xbf8a8c29	-1.0824023
6	0xbfa1fa1a	-1.265445
7	0xbf29e6ad	-0.6636761
8	0xbf96031b	-1.1719698
9	0x3e003930	0.12521815
10	0xbd74e780	-0.059791088
11	0xbe615255	-0.22004063
12	0xbe03ff43	-0.12890343
13	0xbe15b30c	-0.14619082
14	0xbd92ec38	-0.071739614
15	0x3f0a6324	0.54057527
16	0x3fc150a7	1.5102738
17	0x3dffa8de	0.12483381
18	0x3d98bb7f	0.07457637
19	0x3e80b756	0.25139874
20	0x3fc01ff7	1.5009755
21	0x3fbcdf25	1.4755598
22	0x3fa70242	1.3047564
23	0x3ea1c447	0.3159506
24	0x3fa367af	1.2766017
25	0x3c8c3cc1	0.017118813
26	0xbd833bc0	-0.06407881
27	0xbe22c747	-0.15896331
28	0xbc47ef7f	-0.012203096
29	0x3e34d61e	0.17659804
30	0xbe3679fc	-0.17819971
31	0x3ec3d57b	0.3824881
32	0x3f95c168	1.1699648
33	0xbf092774	-0.53575826
34	0xbf050e76	-0.5197519
35	0xbf60ddd6	-0.87838495
36	0x3f93b916	1.1540859
37	0x3f69d0a9	0.91334015
38	0x3f957eea	1.1679356
39	0x3f47ffa0	0.7812443
40	0x3f84358e	1.0328844
41	0xbdd45e8a	-0.103695944
42	0x3cdd2210	0.026993781
43	0x3c9132fa	0.017724503
44	0x3c946d8c	0.018118642
45	0xbd5ef3e0	-0.054431796
46	0xbdbe7aa0	-0.093007326
47	0xbf150e91	-0.5822535
48	0x3ea9a2dd	0.33132067
49	0xbf6b03eb	-0.91802853
50	0xbf330c9e	-0.6994113
51	0xbf294778	-0.6612468
52	0x3ec84b3d	0.39119902
53	0x3eb58fff	0.35461423
54	0x3ec5e976	0.3865468
55	0x3e08abab	0.13346736
56	0x3ea69656	0.32536572
57	0x3e254d0c	0.16142672
58	0x3d1fe140	0.039033175
59	0xbdce2a8e	-0.100667104
60	0xbe28395a	-0.16428128
61	0xbe6cb0fc	-0.23114389
62	0x3e17b2e0	0.14814329
63	0xbf3f62cb	-0.7476012
64	0x3f9f3faf	1.244131
65	0x3f0a2190	0.5395746
66	0x3eef4816	0.46734685
67	0x3f0ed007	0.55786175
68	0x3fb50741	1.4142839
69	0x3f9971ba	1.1987832
70	0x3fa7e48b	1.3116621
71	0x3e8b444a	0.27200538
72	0x3f9c3b2e	1.220556
73	0xbe1a9cfb	-0.15098946
74	0x3cb91e99	0.022597598
75	0xbde1bc36	-0.110222265
76	0xbdaae38c	-0.08344182
77	0xbe22a684	-0.15883833
78	0xbe41798a	-0.1889402
79	0x3ec4fb89	0.38473156
80	0xbfbf5b1e	-1.4949682
81	0x3f95f0c4	1.1714101
82	0x3f1c3ad6	0.61027277
83	0x3f5b6e4f	0.8571519
84	0xbfdd565a	-1.7291977
85	0xbfb9db0a	-1.451997
86	0xbfa533b1	-1.29064
87	0xbf3b39a4	-0.7313483
88	0xbf94a875	-1.1613909
89	0xbda315a0	-0.07963109
90	0x3e1db49d	0.1540093
91	0xbe189190	-0.14899278
92	0x3dd04e19	0.10171146
93	0xbd21df98	-0.039519876
94	0xbe2f828c	-0.17139643
95	0x3f5e0cd4	0.86738324
96	0x3df09f47	0.1174913
97	0xbf869c4f	-1.0516452
98	0xbf813c14	-1.0096459
99	0xbfba7b30	-1.4568844
100	0x3e570666	0.20998535
101	0xbc703238	-0.014660411
102	0xbdc77c87	-0.097405486
103	0x3ce3e5d6	0.027819555
104	0xbd4cfe13	-0.05004699
105	0xbcb61866	-0.022228431
106	0xbe02a760	-0.12759161
107	0x3de89f77	0.113585405
108	0xbdd9d10c	-0.10635576
109	0xbdd9b79c	-0.10630724
110	0xbdd5e1f0	-0.10443485
111	0xbf7f4b2d	-0.99724084
112	0xbedb8496	-0.42874593
113	0x3f0d38da	0.55164874
114	0x3efae3c4	0.49001896
115	0x3f2fd413	0.68682975
116	0xbed2f728	-0.4120419
117	0xbef2fbae	-0.4745764
118	0xbf20a07c	-0.6274488
119	0xbda77ffd	-0.08178709
120	0xbe09d393	-0.13459615
121	0x3d13cb48	0.036082536
122	0x3d474730	0.048651874
123	0xbe6b6329	-0.22987045
124	0xbd498431	-0.049198333
125	0xbd7845a0	-0.060613275
126	0xbc6a2580	-0.014291167
127	0x3f2c849c	0.67389846
128	0xbfcb9d6f	-1.590742
129	0x3f4d83b4	0.8027909
130	0x3f3b9807	0.7327885
131	0x3f675511	0.90364176
132	0xbfa9ab7c	-1.3255458
133	0xbf85e1e5	-1.0459563
134	0xbfa48216	-1.2852199
135	0xbec045d6	-0.3755328
136	0xbf9ae58a	-1.21013
137	0x3db741c0	0.08948088
138	0xbd93ad2a	-0.07210763
139	0xbe524d3c	-0.20537275
140	0x3da4e499	0.08051414
141	0xbe08361a	-0.13301888
142	0x3ddff854	0.10936037
143	0x3f0e19e0	0.5550823
144	0x3f909b61	1.1297418
145	0x3f122594	0.5708859
146	0x3ef8fdcb	0.4863113
147	0x3f0f79ce	0.56045234
148	0x3f85e677	1.0460957
149	0x3f3a370b	0.7274024
150	0x3f8128a4	1.0090528
151	0x3f0864a3	0.5327856
152	0x3f8adda8	1.0848894
153	0xbe7959c3	-0.24350648
154	0xbd84d644	-0.064861804
155	0xbad7c53c	-0.0016461979
156	0x3daa27b8	0.08308357
157	0xbdc28678	-0.09498304
158	0xbe7b33f4	-0.24531537
159	0x3df5ea26	0.12007551
160	0xbf82f237	-1.0230168
161	0x3fbe489d	1.486591
162	0x3f9ac51f	1.2091407
163	0x3fb1501e	1.3852575
164	0xbf5a918e	-0.8537835
165	0xbf36e36f	-0.71440786
166	0xbf3f301c	-0.74682784
167	0xbe891c88	-0.2677958
168	0xbf263b77	-0.64934486
169	0xbe844e5b	-0.2584103
170	0x3ce2175d	0.027599031
171	0xbb2ab116	-0.0026045493
172	0xbd53bdd2	-0.0516947
173	0xbcd6ce10	-0.026221305
174	0xbd16fd70	-0.03686279
175	0x3f943029	1.1577197
176	0xbd6f6d11	-0.058453623
177	0x3f32d20e	0.6985177
178	0x3ee66fec	0.45007265
179	0x3f40e5ad	0.7535046
180	0x3c01e16b	0.007927279
181	0xbe41185d	-0.1885695
182	0xbe6e27ab	-0.2325732
183	0x3e55f4b5	0.2089413
184	0xbda62b40	-0.08113718
185	0x3c7ed939	0.01555472
186	0x3df022e4	0.11725405
187	0x3de0349c	0.109475344
188	0x3d5c4aa9	0.05378214
189	0x3e50665c	0.20351547
190	0x3da26018	0.07928485
191	0x3f3848c1	0.71986014
192	0xbfa0f5dc	-1.257503
193	0x3f62cd63	0.88594645
194	0x3f0ec52a	0.557696
195	0x3f581749	0.8441053
196	0xbfa22be9	-1.266965
197	0xbf9428bf	-1.1574935
198	0xbf666cbb	-0.9000966
199	0xbea6a903	-0.3255082
200	0xbf6e3cea	-0.930617
201	0xbd93dc64	-0.072197706
202	0xbd6c4f01	-0.05769253
203	0xbec81cf3	-0.39084587
204	0xbe85fc88	-0.2616923
205	0x3e23676a	0.15957418
206	0xbe0be2d2	-0.13660744
207	0x3f532559	0.82478863
208	0xbe893dd5	-0.26804987
209	0xc002d204	-2.0440683
210	0xbfcb4ed6	-1.5883434
211	0xbfe92d8b	-1.8217024
212	0xbe901ec9	-0.28148487
213	0xbe6d4fe4	-0.23175007
214	0xbe102b62	-0.14079049
215	0x3ee023be	0.4377727
216	0xbd9ecdd3	-0.077541016
217	0xbd2ae1d6	-0.04171928
218	0x3e6fda84	0.23423201
219	0x3d283ad9	0.041071746
220	0x3ddfc14b	0.109255396
221	0xbba52b80	-0.005040586
222	0xbd64f418	-0.05589685
223	0xbfa1f4e8	-1.2652864
224	0x3f1d0856	0.61340845
225	0xbf745726	-0.9544548
226	0xbf44e499	-0.7691131
227	0xbf9f9298	-1.2466612
228	0x3f674136	0.9033388
229	0x3f0d4e91	0.5519801
230	0x3f486396	0.78276956
231	0x3f11b1e9	0.56912094
232	0x3f0157f5	0.50524837
233	0xbe96b65f	-0.29436013
234	0xbe081b96	-0.13291773
235	0xbdf7ce1b	-0.120998584
236	0x395b9777	0.00020941893
237	0x3d9f1104	0.07766917
238	0x3e1e2612	0.1544421
239	0xbf28787b	-0.6580884
240	0x3f547248	0.8298688
241	0xbf816f6a	-1.0112126
242	0xbf6a7ce0	-0.91596794
243	0xbf4780c2	-0.77930844
244	0x3f662f90	0.89916325
245	0x3f0d0745	0.5508922
246	0x3f2dd191	0.678979
247	0x3f50cdfc	0.8156431
248	0x3ebf0fdc	0.37316787
249	0x3b016999	0.001974678
250	0xbe533c6e	-0.20628521
251	0x3dcee65f	0.101025335
252	0x3d1f47f3	0.038886975
253	0xbdcb371c	-0.09922621
254	0xbe4a17a4	-0.1973558
255	0xbf45501b	-0.77075356

onnx::MatMul_28 f4 [16, 2]
0	0x3fa1b470	1.263319
1	0xbfa5f32d	-1.2964836
2	0xc013fb70	-2.3122215
3	0x400e4ae1	2.2233202
4	0xbfe679f9	-1.8005973
5	0x3fdde5d3	1.7335762
6	0xc0202522	-2.5022664
7	0x4000866b	2.0082042
8	0x3fb98e30	1.4496517
9	0xbfa8edf7	-1.3197621
10	0x3fa3ac1c	1.2786899
11	0xbfb0dc68	-1.3817263
12	0x3facbf5d	1.34959
13	0xbfba4f66	-1.455548
14	0x3f434abd	0.76285917
15	0xbf3a8157	-0.72853607
16	0x3fa5dc46	1.2957847
17	0xbf8b28ec	-1.0871863
18	0xbde6ed5c	-0.112757415
19	0x3e28616a	0.1644341
20	0x3e170658	0.14748514
21	0x3d12d937	0.035851683
22	0x3d3c2cc8	0.045941144
23	0xbdcb7095	-0.09933583
24	0x3ddfbb53	0.10924401
25	0x3e1b1044	0.15142924
26	0xbc4013c0	-0.011723459
27	0x3de830bc	0.1133742
28	0x3d91c3e8	0.07117444
29	0xbe2e64de	-0.17030665
30	0xbfdba0f5	-1.7158495
31	0x3fabbff6	1.3417957
